{"keras_version": "2.0.6", "class_name": "Model", "config": {"layers": [{"inbound_nodes": [], "class_name": "InputLayer", "config": {"batch_input_shape": [null, 400], "sparse": false, "name": "input_27", "dtype": "float32"}, "name": "input_27"}, {"inbound_nodes": [[["input_27", 0, 0, {}]]], "class_name": "Dense", "config": {"kernel_constraint": null, "kernel_regularizer": null, "name": "dense_209", "bias_regularizer": null, "bias_constraint": null, "use_bias": true, "units": 300, "kernel_initializer": {"class_name": "VarianceScaling", "config": {"scale": 1.0, "seed": null, "mode": "fan_avg", "distribution": "uniform"}}, "bias_initializer": {"class_name": "Zeros", "config": {}}, "activation": "sigmoid", "trainable": true, "activity_regularizer": {"class_name": "L1L2", "config": {"l1": 9.999999747378752e-05, "l2": 0.0}}}, "name": "dense_209"}, {"inbound_nodes": [[["dense_209", 0, 0, {}]]], "class_name": "Dense", "config": {"kernel_constraint": null, "kernel_regularizer": null, "name": "dense_210", "bias_regularizer": null, "bias_constraint": null, "use_bias": true, "units": 125, "kernel_initializer": {"class_name": "VarianceScaling", "config": {"scale": 1.0, "seed": null, "mode": "fan_avg", "distribution": "uniform"}}, "bias_initializer": {"class_name": "Zeros", "config": {}}, "activation": "sigmoid", "trainable": true, "activity_regularizer": {"class_name": "L1L2", "config": {"l1": 9.999999747378752e-05, "l2": 0.0}}}, "name": "dense_210"}, {"inbound_nodes": [[["dense_210", 0, 0, {}]]], "class_name": "Dense", "config": {"kernel_constraint": null, "kernel_regularizer": null, "name": "dense_211", "bias_regularizer": null, "bias_constraint": null, "use_bias": true, "units": 50, "kernel_initializer": {"class_name": "VarianceScaling", "config": {"scale": 1.0, "seed": null, "mode": "fan_avg", "distribution": "uniform"}}, "bias_initializer": {"class_name": "Zeros", "config": {}}, "activation": "sigmoid", "trainable": true, "activity_regularizer": {"class_name": "L1L2", "config": {"l1": 9.999999747378752e-05, "l2": 0.0}}}, "name": "dense_211"}, {"inbound_nodes": [[["dense_211", 0, 0, {}]]], "class_name": "Dense", "config": {"kernel_constraint": null, "kernel_regularizer": null, "name": "dense_212", "bias_regularizer": null, "bias_constraint": null, "use_bias": true, "units": 5, "kernel_initializer": {"class_name": "VarianceScaling", "config": {"scale": 1.0, "seed": null, "mode": "fan_avg", "distribution": "uniform"}}, "bias_initializer": {"class_name": "Zeros", "config": {}}, "activation": "softmax", "trainable": true, "activity_regularizer": null}, "name": "dense_212"}], "output_layers": [["dense_212", 0, 0]], "input_layers": [["input_27", 0, 0]], "name": "model_27"}, "backend": "tensorflow"}