{"keras_version": "2.0.6", "class_name": "Model", "config": {"layers": [{"inbound_nodes": [], "class_name": "InputLayer", "config": {"batch_input_shape": [null, 400], "sparse": false, "name": "input_25", "dtype": "float32"}, "name": "input_25"}, {"inbound_nodes": [[["input_25", 0, 0, {}]]], "class_name": "Dense", "config": {"kernel_constraint": null, "kernel_regularizer": null, "name": "dense_193", "bias_regularizer": null, "bias_constraint": null, "use_bias": true, "units": 300, "kernel_initializer": {"class_name": "VarianceScaling", "config": {"scale": 1.0, "seed": null, "mode": "fan_avg", "distribution": "uniform"}}, "bias_initializer": {"class_name": "Zeros", "config": {}}, "activation": "sigmoid", "trainable": true, "activity_regularizer": {"class_name": "L1L2", "config": {"l1": 9.999999747378752e-05, "l2": 0.0}}}, "name": "dense_193"}, {"inbound_nodes": [[["dense_193", 0, 0, {}]]], "class_name": "Dense", "config": {"kernel_constraint": null, "kernel_regularizer": null, "name": "dense_194", "bias_regularizer": null, "bias_constraint": null, "use_bias": true, "units": 125, "kernel_initializer": {"class_name": "VarianceScaling", "config": {"scale": 1.0, "seed": null, "mode": "fan_avg", "distribution": "uniform"}}, "bias_initializer": {"class_name": "Zeros", "config": {}}, "activation": "sigmoid", "trainable": true, "activity_regularizer": {"class_name": "L1L2", "config": {"l1": 9.999999747378752e-05, "l2": 0.0}}}, "name": "dense_194"}, {"inbound_nodes": [[["dense_194", 0, 0, {}]]], "class_name": "Dense", "config": {"kernel_constraint": null, "kernel_regularizer": null, "name": "dense_195", "bias_regularizer": null, "bias_constraint": null, "use_bias": true, "units": 80, "kernel_initializer": {"class_name": "VarianceScaling", "config": {"scale": 1.0, "seed": null, "mode": "fan_avg", "distribution": "uniform"}}, "bias_initializer": {"class_name": "Zeros", "config": {}}, "activation": "sigmoid", "trainable": true, "activity_regularizer": {"class_name": "L1L2", "config": {"l1": 9.999999747378752e-05, "l2": 0.0}}}, "name": "dense_195"}, {"inbound_nodes": [[["dense_195", 0, 0, {}]]], "class_name": "Dense", "config": {"kernel_constraint": null, "kernel_regularizer": null, "name": "dense_196", "bias_regularizer": null, "bias_constraint": null, "use_bias": true, "units": 5, "kernel_initializer": {"class_name": "VarianceScaling", "config": {"scale": 1.0, "seed": null, "mode": "fan_avg", "distribution": "uniform"}}, "bias_initializer": {"class_name": "Zeros", "config": {}}, "activation": "softmax", "trainable": true, "activity_regularizer": null}, "name": "dense_196"}], "output_layers": [["dense_196", 0, 0]], "input_layers": [["input_25", 0, 0]], "name": "model_25"}, "backend": "tensorflow"}