{"keras_version": "2.0.6", "class_name": "Model", "config": {"layers": [{"inbound_nodes": [], "class_name": "InputLayer", "config": {"batch_input_shape": [null, 400], "sparse": false, "name": "input_3", "dtype": "float32"}, "name": "input_3"}, {"inbound_nodes": [[["input_3", 0, 0, {}]]], "class_name": "Dense", "config": {"kernel_constraint": null, "kernel_regularizer": null, "name": "dense_17", "bias_regularizer": null, "bias_constraint": null, "use_bias": true, "units": 350, "kernel_initializer": {"class_name": "VarianceScaling", "config": {"scale": 1.0, "seed": null, "mode": "fan_avg", "distribution": "uniform"}}, "bias_initializer": {"class_name": "Zeros", "config": {}}, "activation": "sigmoid", "trainable": true, "activity_regularizer": {"class_name": "L1L2", "config": {"l1": 9.999999747378752e-05, "l2": 0.0}}}, "name": "dense_17"}, {"inbound_nodes": [[["dense_17", 0, 0, {}]]], "class_name": "Dense", "config": {"kernel_constraint": null, "kernel_regularizer": null, "name": "dense_18", "bias_regularizer": null, "bias_constraint": null, "use_bias": true, "units": 175, "kernel_initializer": {"class_name": "VarianceScaling", "config": {"scale": 1.0, "seed": null, "mode": "fan_avg", "distribution": "uniform"}}, "bias_initializer": {"class_name": "Zeros", "config": {}}, "activation": "sigmoid", "trainable": true, "activity_regularizer": {"class_name": "L1L2", "config": {"l1": 9.999999747378752e-05, "l2": 0.0}}}, "name": "dense_18"}, {"inbound_nodes": [[["dense_18", 0, 0, {}]]], "class_name": "Dense", "config": {"kernel_constraint": null, "kernel_regularizer": null, "name": "dense_19", "bias_regularizer": null, "bias_constraint": null, "use_bias": true, "units": 50, "kernel_initializer": {"class_name": "VarianceScaling", "config": {"scale": 1.0, "seed": null, "mode": "fan_avg", "distribution": "uniform"}}, "bias_initializer": {"class_name": "Zeros", "config": {}}, "activation": "sigmoid", "trainable": true, "activity_regularizer": {"class_name": "L1L2", "config": {"l1": 9.999999747378752e-05, "l2": 0.0}}}, "name": "dense_19"}, {"inbound_nodes": [[["dense_19", 0, 0, {}]]], "class_name": "Dense", "config": {"kernel_constraint": null, "kernel_regularizer": null, "name": "dense_20", "bias_regularizer": null, "bias_constraint": null, "use_bias": true, "units": 5, "kernel_initializer": {"class_name": "VarianceScaling", "config": {"scale": 1.0, "seed": null, "mode": "fan_avg", "distribution": "uniform"}}, "bias_initializer": {"class_name": "Zeros", "config": {}}, "activation": "softmax", "trainable": true, "activity_regularizer": null}, "name": "dense_20"}], "output_layers": [["dense_20", 0, 0]], "input_layers": [["input_3", 0, 0]], "name": "model_3"}, "backend": "tensorflow"}