{"class_name": "Model", "config": {"name": "model_2", "output_layers": [["dense_12", 0, 0]], "layers": [{"name": "input_2", "class_name": "InputLayer", "inbound_nodes": [], "config": {"name": "input_2", "batch_input_shape": [null, 100], "sparse": false, "dtype": "float32"}}, {"name": "dense_9", "class_name": "Dense", "inbound_nodes": [[["input_2", 0, 0, {}]]], "config": {"name": "dense_9", "bias_constraint": null, "bias_initializer": {"class_name": "Zeros", "config": {}}, "units": 90, "activity_regularizer": {"class_name": "L1L2", "config": {"l2": 0.0, "l1": 9.999999747378752e-05}}, "kernel_initializer": {"class_name": "VarianceScaling", "config": {"seed": null, "mode": "fan_avg", "distribution": "uniform", "scale": 1.0}}, "use_bias": true, "bias_regularizer": null, "kernel_constraint": null, "kernel_regularizer": null, "activation": "sigmoid", "trainable": true}}, {"name": "dense_10", "class_name": "Dense", "inbound_nodes": [[["dense_9", 0, 0, {}]]], "config": {"name": "dense_10", "bias_constraint": null, "bias_initializer": {"class_name": "Zeros", "config": {}}, "units": 70, "activity_regularizer": {"class_name": "L1L2", "config": {"l2": 0.0, "l1": 9.999999747378752e-05}}, "kernel_initializer": {"class_name": "VarianceScaling", "config": {"seed": null, "mode": "fan_avg", "distribution": "uniform", "scale": 1.0}}, "use_bias": true, "bias_regularizer": null, "kernel_constraint": null, "kernel_regularizer": null, "activation": "sigmoid", "trainable": true}}, {"name": "dense_11", "class_name": "Dense", "inbound_nodes": [[["dense_10", 0, 0, {}]]], "config": {"name": "dense_11", "bias_constraint": null, "bias_initializer": {"class_name": "Zeros", "config": {}}, "units": 40, "activity_regularizer": {"class_name": "L1L2", "config": {"l2": 0.0, "l1": 9.999999747378752e-05}}, "kernel_initializer": {"class_name": "VarianceScaling", "config": {"seed": null, "mode": "fan_avg", "distribution": "uniform", "scale": 1.0}}, "use_bias": true, "bias_regularizer": null, "kernel_constraint": null, "kernel_regularizer": null, "activation": "sigmoid", "trainable": true}}, {"name": "dense_12", "class_name": "Dense", "inbound_nodes": [[["dense_11", 0, 0, {}]]], "config": {"name": "dense_12", "bias_constraint": null, "bias_initializer": {"class_name": "Zeros", "config": {}}, "units": 5, "activity_regularizer": null, "kernel_initializer": {"class_name": "VarianceScaling", "config": {"seed": null, "mode": "fan_avg", "distribution": "uniform", "scale": 1.0}}, "use_bias": true, "bias_regularizer": null, "kernel_constraint": null, "kernel_regularizer": null, "activation": "softmax", "trainable": true}}], "input_layers": [["input_2", 0, 0]]}, "keras_version": "2.0.6", "backend": "tensorflow"}